submission/model.pt (torch, 57003 bytes, 5 tensors)

weight f4 [32, 407]
00000000: 4862 dabb 3462 47bd f7d7 1f3d 30fc 48bd
00000010: 9fe9 8d3c 8213 453c dd5b f7bc e4c8 bbbc
00000020: 6e88 b5bc b352 31bd a720 df3c 65ed 413d
00000030: 793b 9cbc ea95 b53c d59e 04bd 856d 2fbd
00000040: 1c3c 3d3d 51a6 2dba b549 c5bc e94f b2bb
00000050: a9fc 2d3d 6839 d93c cb2b 0b3d 6639 f8bc
00000060: d5e4 0dbd fd1f 313d f9d1 f83c 4a59 cb3c
00000070: 9cf8 013d f5df 113d a21b 193d 091d 25bd
00000080: 765a 41bd fd41 08bc 9e76 fabc 3ece 06bd
00000090: 57f8 b6bc 175b 49bd 854d 37bb bd4a 4abd
000000a0: 39e6 323d 5031 da3c e95b 32bd bfc8 fe3c
000000b0: 5f83 85bc 63d2 28bd eadf 1b3c 48f3 09ba
000000c0: cf81 2b3d 048e b3bc da00 05bd 810e 3f3d
000000d0: f989 d0bc 7360 21bc ea38 803c 34ad 85bc
000000e0: d136 683c d1b2 31bd 3e42 093d 1ef8 3b3d
000000f0: a949 2e3d 3c2a c4bc 1d1d cf3c 053b 28bd
00000100: 56f4 acbc 5912 14bd bac3 cc3c 7367 6abc
00000110: 6141 2fbd 029f 343d 4067 9fbb aa9f 6e3b
00000120: b94f 0dbd e669 3b3d c9a8 3dbc 9277 d138
00000130: c5b0 87bc 558b e03b d799 e1bc ad97 0c3d
00000140: a774 6f3c 6b4e 31bd 8dc1 9f3c a2ec a2bc
00000150: 2c99 bd3b 79c9 373d ade0 c8ba 44b3 afbc
00000160: 4b89 07bb f8c5 a7bc c39c 24bd e840 33bd
00000170: 9c4c 673a 4190 203c c374 1dbd ce37 d63b
00000180: dab9 8c3c 4957 debb 01a5 15bd 9726 bb3c
00000190: 7d4e c63c 12bf 443c 3b32 493d 44b7 30bc
000001a0: 73ee 973c 512f 173d 2f22 3a3d 48e8 623c
000001b0: 9e26 6f3b 62f8 833c 40bc 33bd 27e8 37bd
000001c0: f9e4 19bd e798 4239 c89a 0dbd aa05 afbc
000001d0: b998 b43c 6fa0 d3bc 62c8 0f3c 467e a33c
000001e0: 1571 083d 484e d63c fa9d 2e3d ff5e 333d
000001f0: 5e96 51bb b173 1cbd de23 013d 2759 23bd
00000200: c4d0 333c da86 abbc 94d7 1abd 567c 233c
00000210: 7e3f 86bc 704a 853c 1309 6c39 85ff af3c
00000220: ae4f 41bd a6da dcbb 30bb 1abc e5d5 0abd
00000230: 0f32 c83c c117 283d aeda e43c 760e 0dbd
00000240: a727 3a3d 384b 36bd 458c 253d c654 2b3c
00000250: dd72 0b3c afb7 0abd 1807 d03c fd47 173c
00000260: c01f 8fbb 8797 c7bc 8c55 103d 67ef 00bd
00000270: baea 0a3d f731 9cbc 97fb 9fbc 7241 22bd
00000280: 3c81 da3b 667a b4bc 2e27 df3c 519d 38bd
00000290: 068b 383c a70b c9bc c91e babc 6d80 36bc
000002a0: d6a8 233d 63e9 12bd cc67 0d3d 7806 85bc
000002b0: 1a51 35bc 0323 e0bb 45ff 26bc 572d 9bbc
000002c0: 0f97 013c cc07 10bd 3039 bbbb af16 023d
000002d0: 3d8a ed3c 2002 25bd 59ec a33c eabd 17bc
000002e0: eb94 303d f2cc 0c3d 3483 bfba 3f04 a6bc
000002f0: 3e1b f5bb 93dd 8dbc 7f7b a23c 677a b8bc
00000300: a28b 44bc a10d 093d 3e28 353d 8b3c 33bc
00000310: d7d3 29bd d2aa 00bd 0f91 86bc 088c 883c
00000320: 0076 073a 20c2 05bd 36fc 203d c2b6 073d
00000330: 31b9 8dbc 1174 08bc 3826 fbbb 6954 063d
00000340: d3c1 d73b 902c 313d 0325 f5bc fc8e a3bb
00000350: 1b02 f83c 9310 633c e290 093d 05ba f9ba
00000360: a5ee cdb9 d079 15bd e326 2b3d a052 32bd
00000370: 2700 2d3d 251b 603c 3832 0d3d 2349 2f3d
00000380: cda5 613c d87d eb3b 6fe8 113c 98cc 483d
00000390: dd09 79bc 5ea1 4a3d 244d 833c cc42 143d
000003a0: 403e e8bc 8650 c6bc c907 863c a930 233d
000003b0: 4d53 a738 e125 55bc 9e25 113d b5eb cbbc
000003c0: 24d4 0fbd b126 eb3c 0c82 11bd 70df 723c
000003d0: 711a c13c 0396 91bc ecf4 183d 10fe 643b
000003e0: 3326 383d 567d 1abd c696 65bc 1600 5dbc
000003f0: 9f3c 023c 58b1 88bc 41cd 043d a044 44bd
-0.006664548 -0.04867764 0.03902432 -0.04906863 0.017323313 0.012028577 -0.030195171 -0.02292294
-0.022159781 -0.04329176 0.02723725 0.047345538 -0.019071328 0.022166211 -0.032378037 -0.042829055
0.046199903 -0.00066242093 -0.024082998 -0.005441655 0.042477284 0.026516631 0.03397731 -0.030300807
-0.03464206 0.043243397 0.03037356 0.02482285 0.031731233 0.035613973 0.03737987 -0.040310893
-0.04720541 -0.008316514 -0.03057414 -0.03291153 -0.022335215 -0.049159136 -0.002796979 -0.049387682
0.04367659 0.026634842 -0.043544684 0.031101583 -0.016297994 -0.041216265 0.0095138345 -0.0005262387
0.041871842 -0.021918304 -0.032471515 0.04664469 -0.025456415 -0.009849655 0.015652139 -0.016317941
0.0141732255 -0.043383423 0.03351044 0.04589092 0.042550717 -0.02394592 0.025282437 -0.04107191
-0.021112602 -0.03615031 0.024995673 -0.014306891 -0.04278696 0.044096954 -0.0048646033 0.0036411085
-0.034499858 0.04575529 -0.011575886 9.988168e-05 -0.016563782 0.006852547 -0.027539177 0.034324337
0.014615214 -0.043287676 0.019501472 -0.019888226 0.005786082 0.044869874 -0.0015325748 -0.021447785
-0.0020681198 -0.020480141 -0.040188562 -0.04376307 0.00088233664 0.009800018 -0.03844143 0.006537414
0.017178465 -0.0067853075 -0.036534313 0.02284555 0.024207348 0.012008445 0.04912017 -0.010785881
0.018546319 0.03691036 0.045442756 0.0138493255 0.0036491523 0.01610965 -0.0438807 -0.044899132
-0.03757188 0.00018558242 -0.03457144 -0.021365006 0.02204548 -0.025833337 0.008775802 0.019957673
0.03331097 0.026160374 0.042631127 0.043791767 -0.0031980495 -0.03819627 0.031528346 -0.039879944
0.010975067 -0.020938326 -0.037803248 0.0099783745 -0.016387697 0.016270846 0.00022510094 0.021484146
-0.04719513 -0.006739932 -0.009444043 -0.033895392 0.024437932 0.04103828 0.027936306 -0.03443762
0.04544797 -0.044505328 0.040416975 0.010457223 0.008511272 -0.03386658 0.025394008 0.009233472
-0.0043677986 -0.024364246 0.035237834 -0.031478312 0.03391526 -0.019066794 -0.019529147 -0.039613195
0.006668238 -0.02203102 0.027240362 -0.045071904 0.0112636145 -0.02454169 -0.022719758 -0.0111390175
0.039955936 -0.035867106 0.034522817 -0.016238436 -0.011066699 -0.006840111 -0.010192697 -0.018942518
0.00790955 -0.035163686 -0.0057136044 0.031759914 0.028996581 -0.04028523 0.02001016 -0.009261588
0.04311077 0.03437514 -0.0014611245 -0.020265697 -0.007480054 -0.017317569 0.019834278 -0.022519303
-0.011996182 0.033460263 0.04422783 -0.010939728 -0.04146179 -0.031412907 -0.016426591 0.016668335
0.00051674247 -0.032655835 0.039303027 0.033133276 -0.01730022 -0.008328454 -0.007664468 0.032795344
0.006584385 0.04325539 -0.029924875 -0.0049914103 0.030274441 0.013858932 0.033585437 -0.001905263
-0.0003927845 -0.036493123 0.041785132 -0.04353583 0.042236473 0.013678347 0.03447172 0.042794358
0.01377244 0.0071866326 0.008905514 0.04902324 -0.0152001055 0.049470298 0.016027994 0.036196515
-0.028349996 -0.024208318 0.016361134 0.039841328 7.9786965e-05 -0.013009519 0.035436265 -0.024892667
-0.035114422 0.028704973 -0.035524413 0.014823779 0.023572179 -0.017771726 0.03734295 0.0034941472
0.044958305 -0.037717186 -0.014012998 -0.01348879 0.0079490235 -0.016686127 0.032422308 -0.04791701

bias f4 [32]
00000000: 9d99 4a3d 1f3e a73c 139e 163a 8173 f0bc
00000010: 235d ccbb bee2 f43c 2014 26bc d245 433a
00000020: cf70 623c 8e71 013d 58f6 293c fe1a af3b
00000030: d8b9 2c3d 5ced 32bd 7454 2bbd 643e fa3c
00000040: e7a1 6e3c f022 40bd e8a4 263d 9a5f 283d
00000050: 70e2 4e3b 18f8 ad3c d5ab 0c3c b124 4abd
00000060: 99a8 2f3c 536f 0cbd 020a eebc cbe3 2a3d
00000070: 1bd0 3ebb 50ff 183d f930 0c3d 0680 17bd
0.049462903 0.020415364 0.0005745601 -0.029351952 -0.0062366887 0.029893275 -0.010136634 0.00074490637
0.013820841 0.031602435 0.010373674 0.005343794 0.042169422 -0.043683395 -0.041828588 0.030547328
0.014564968 -0.04690832 0.04068461 0.041106798 0.0031568073 0.021236464 0.00858589 -0.049351398
0.010721349 -0.034285855 -0.029057506 0.041721147 -0.002911574 0.03735286 0.03422639 -0.036987327

weight f4 [1, 32]
00000000: a868 8abb 71b3 003e 4ed6 113e e482 f53d
00000010: 54ed ef3b d666 00be 01c2 d8bd 0e8e ee3d
00000020: 80e3 be3d 1c81 153e 499f 0d3e d482 b63c
00000030: 7be4 20be 6c17 06be 77ae 09be 622e c33d
00000040: 5245 05be a50c 2ebd 9875 9ebd a23a 123e
00000050: 88ce 5cbd 6704 d2bd 3bd2 673d e268 a43d
00000060: 4221 a43d 3bbb 03be 98e9 2fbe 90b9 083e
00000070: ec72 08be 6b0b a63c 3b90 903b 78fa 913c
-0.004223902 0.12568451 0.14241907 0.11987856 0.007321993 -0.12539229 -0.10583878 0.116481885
0.09320736 0.14600033 0.13830294 0.02227918 -0.15712158 -0.13094872 -0.1344546 0.09530331
-0.13014725 -0.042492528 -0.07737273 0.14280179 -0.0539079 -0.10254746 0.056596976 0.08027817
0.08014156 -0.12864392 -0.17178953 0.13352036 -0.13325089 0.020269116 0.004411725 0.017819628

weight f4 [2, 142]
00000000: ea0d 1bbd ee99 94bc b6c5 3ebd 62a8 5ebd
00000010: 9b00 1a3d a4d3 bebc df4a 923d 9b9f 05bd
00000020: 943f 753d 1d3a 2a3c 6801 5bbd 0b9e 5f3d
00000030: 2ded 5a3d 2e63 08bd 6dca 80bd fcc6 383d
00000040: 760b ab3d e406 053c 5817 623d 3076 503b
00000050: 5a87 80bd 825c 8cbd 774f b13c 1d8a b73c
00000060: 004c 16bd 4049 b83c 197f 9439 dc6e 403d
00000070: 13ef 273d 1e93 4f3d c62b 953c 87ba 233d
00000080: 8c7d c63c 0540 99bd 5c6d 55bc 026c b0ba
00000090: 298d f8bc e7de e83b 5628 fa3c ea73 f63c
000000a0: 9a9b 77bd 3396 d43c 188b ea3b 7074 83bc
000000b0: fce3 993c 90a5 283d cc1c 68bd 6f9a 5cbd
000000c0: 274c 9ebd 3943 84bd 35f0 a7bd 27a5 6dbd
000000d0: 511e 1cbd c5c1 f33c e43d 03bd 63cf c73b
000000e0: 42d6 063c 7bb8 17bb ed57 68bb 9ba0 3abd
000000f0: 093f 823d 6682 87ba dad6 833d 21da 70bc
00000100: 04a3 ef3c aff1 763c 39f9 09bc f2f2 45bd
00000110: 96d9 633d 8b5c 833d 78de ec3c 09fa 63bd
00000120: f877 a43d 144f 6e3d 8206 f5bc 4fb4 45bd
00000130: de61 9ebd 74c7 28bd 3e3b 603d 48db d4bc
00000140: 0c8c 593d 7032 613d 8286 763d 50ee a7bc
00000150: ea5e 7f3d 3ff5 9bbd 9222 cfbc 400b 8b3d
00000160: 3f5b 22bc 6707 a0bc addd c5ba a3f4 5ebd
00000170: 6f62 a63c 1b94 61bd d013 a93d 3cc1 6fbd
00000180: 6b8b 13bd 502c 0bbc 434b 2ebd a058 573d
00000190: e463 92bc 0917 02bd 63fe 9bbc 2f95 fc3c
000001a0: 3440 5d3d 0027 9839 c80b 723d c1df 8c3d
000001b0: 2112 95bd efe6 9d3c 804b 773d 705b 87bd
000001c0: 6c3c b1bc 6319 f7bc 222d 853d 583b a03b
000001d0: a063 f8bb 6953 eeba 3cd7 82bc b0b7 d03b
000001e0: 6418 7a3b 06d7 8fbd 3c1a 833c d433 febc
000001f0: a77b 1c3b b459 883b 276a 80ba c4fc 3d3d
00000200: 8fdc 30bb ac61 a63d 6b32 2fbd 41db 083b
00000210: 1e6f 7b3d bc19 f73c 16ea 433d 3a6d 183d
00000220: 2819 8e3d 77b5 6cbd e641 22bd c079 843d
00000230: 4af2 993d 6b92 b8bc e99b b4bc 0549 ac3b
00000240: 012d 9a3d 6f46 9fbd 15b1 f5bc 587c 703d
00000250: ffb9 9c3d 8c39 a63d 9221 61bd 8fec 9bbc
00000260: 0855 9b3d ea62 24bd 78d3 0e3d ae53 a0bd
00000270: 9fb8 96bd 4dea 04bc e247 853d 5e9b 88bd
00000280: d29d 54bd 09a3 1abd fde9 4fbd 730d a33d
00000290: 48b3 6dbd 5539 303d c491 393d 123d fc3c
000002a0: d1d1 973c 10f3 f53b fb1d a33b a307 803d
000002b0: 7d78 ce3c abf0 aabc 5740 343d 7d9a 2ebd
000002c0: 4c5c 6abc 002b aabd 76ae 153c 6b59 bf38
000002d0: ef1e 143d 0bc1 46bd 7325 54bd a457 9fbd
000002e0: 8f5c 143d f419 a23d 963a a6bd 16cc 9cbd
000002f0: 417f 1abd 48d2 e33c 8eac 893c 4b70 2b3d
00000300: 4fbc 203d 1bd6 3bbd 80d4 373d 9005 88bc
00000310: 1b00 5abb d5f9 74bc c65f 8bbd 3240 013d
00000320: 002a 143d fb86 b63c fdef c33c 8cc4 a9bc
00000330: 2a6e 4ebd cd07 623b 6a6b c8bc df6a 9dbd
00000340: ae67 d3bc ebc6 a8bd 45e2 e53c ba42 a7bc
00000350: f0db babc 7808 1f3c 6117 183d ba2e a23d
00000360: 42dc 9fbd 5cdb a1bd d034 8dbc 56b5 8d3d
00000370: cf24 153d 56b1 f13a f42c c5bc 0091 32ba
00000380: 176e 393d 84ed cbbc a943 c53c 0d0a 19bd
00000390: 82d9 163d 33ae 94bc bb2b e4ba 9dfa 29bd
000003a0: 1e2e 983d d1ae 833d 093d 41bd 1d91 8a3d
000003b0: d444 b53c bc14 873c b3c8 9d3d e679 0f3d
000003c0: d8cc 013d ec7c 993c 16dd 07bd fe77 edbc
000003d0: 7704 2abd 04ba dbba ae32 843d 03fb 4dbd
000003e0: 6480 9cbd 6882 9fbd 1923 1dbd 61dc a2bd
000003f0: 405b 3abd 078c 68bd 5b6f 0a3d 7b7d d1bc
-0.037855066 -0.018139806 -0.04657527 -0.0543598 0.037598234 -0.023294277 0.07143187 -0.032622915
0.059875086 0.010389832 -0.053468138 0.05459408 0.053448845 -0.03329771 -0.0628861 0.04511164
0.083517954 0.008119319 0.055198044 0.0031808726 -0.06275816 -0.06853582 0.021644337 0.022404725
-0.036693573 0.022495866 0.00028323455 0.046980724 0.040999483 0.05067741 0.01820935 0.03997281
0.024229787 -0.07482914 -0.013026562 -0.0013459923 -0.030340748 0.00710665 0.030536812 0.030084569
-0.060451128 0.025950527 0.0071576945 -0.016046733 0.01878547 0.041173518 -0.056668088 -0.053858217
-0.07729369 -0.06458134 -0.08200113 -0.05801883 -0.03811485 0.029755482 -0.032041445 0.0060977205
0.008229794 -0.002315073 -0.0035452798 -0.04556332 0.06359679 -0.0010338544 0.06437464 -0.0147004435
0.029252537 0.01507227 -0.008421236 -0.048327394 0.055627428 0.064141355 0.028914675 -0.055658374
0.08030695 0.058180884 -0.02991033 -0.04826766 -0.077335104 -0.04120584 0.054743998 -0.025983468
0.053112075 0.05497974 0.06018687 -0.020499378 0.062346376 -0.07615136 -0.02528504 0.06789255
-0.00990945 -0.01953478 -0.0015095972 -0.054432523 0.020310609 -0.055072885 0.08255732 -0.058533892
-0.03602163 -0.008494452 -0.042552244 0.052574754 -0.017869897 -0.03176025 -0.0190422 0.030832855
0.054016307 0.00029020756 0.059093267 0.06878615 -0.072788484 0.019275157 0.060374737 -0.06609237
-0.021635257 -0.030163473 0.06502749 0.004889887 -0.0075802356 -0.0018182817 -0.015971772 0.0063695535
0.003816151 -0.07023434 0.01600372 -0.031030573 0.0023877413 0.004161084 -0.0009797261 0.046383634
-0.0026986932 0.08124098 -0.04277269 0.0020882639 0.061385266 0.030163638 0.047830664 0.03721354
0.06938392 -0.057790246 -0.039613627 0.064685345 0.07516916 -0.022530755 -0.022047 0.005257728
0.07528115 -0.07777106 -0.029991666 0.058712333 0.076526634 0.08116445 -0.054963656 -0.019033698
0.07584578 -0.040133394 0.03486964 -0.07828461 -0.073594324 -0.008112502 0.06507851 -0.06670259
-0.05190832 -0.03775314 -0.050760258 0.079615496 -0.058032304 0.043023426 0.04530503 0.03079084
0.018532665 0.007505782 0.004977939 0.062514566 0.025203938 -0.020866713 0.04400667 -0.0426278
-0.014304232 -0.08308983 0.009135833 9.124245e-05 0.036162313 -0.048523944 -0.051793527 -0.07780388
0.036221083 0.079151064 -0.08116643 -0.07656114 -0.037719015 0.02781023 0.016805913 0.041855138
0.039242085 -0.045858484 0.04488039 -0.016604215 -0.0033264223 -0.014952143 -0.06805377 0.031555362
0.036172867 0.02228116 0.023918146 -0.020723604 -0.05039803 0.0034489513 -0.024465282 -0.076864
-0.025806274 -0.082410656 0.028061995 -0.02041756 -0.022809952 0.009706609 0.03713167 0.07919069
-0.07805683 -0.079031676 -0.017237097 0.06919353 0.036412057 0.0018439691 -0.024069287 -0.0006811768
0.045271005 -0.02489353 0.024080114 -0.0373631 0.036828525 -0.01814947 -0.0017408052 -0.04149877
0.07430671 0.06429828 -0.04717735 0.067659594 0.022127546 0.01648938 0.07704296 0.03502836
0.031689495 0.018736325 -0.03316983 -0.02898788 -0.041508164 -0.0016763811 0.06454979 -0.05028821
-0.07641676 -0.07788545 -0.03836355 -0.0795219 -0.04549718 -0.056774165 0.033797603 -0.025572529

bias f4 [2]
00000000: 6b01 3e3d ba93 bcbc
0.04638807 -0.02301966
