src/model.pt (torch, 204303 bytes, 13 tensors)

conv1.weight f4 [100, 54, 3]
-0.100622244 0.14792402 -0.123559 -0.11841934 0.013099275 -0.18843074 0.08755818 0.02440973
-0.009873702 0.16186664 -0.1310065 0.06630137 -0.15031792 0.0017628764 -0.079536356 -0.024445167
0.13648538 0.119473696 0.12436169 0.15216178 -0.12583025 -0.18016124 0.13386944 -0.18136132
-0.071040876 0.09780208 0.038596094 0.053067815 -0.0467802 0.114610024 -0.047871742 -0.12655307
-0.014311234 -0.12787051 -0.15184358 -0.17158432 0.18217485 0.12990108 -0.09176505 0.07196605
-0.1625786 0.02386776 -0.17202239 0.16534188 0.08386703 0.053692322 -0.18152475 0.052566703
0.17922154 -0.14110972 -0.051631626 -0.006570012 -0.016934508 0.07266975 0.13975076 -0.020350695
0.16981302 0.05744593 0.105910435 -0.05268727 -0.114479065 0.13787952 -0.080128364 -0.17293164
-0.03477719 -0.12420727 0.051215373 -0.18228546 -0.035948046 -0.07750753 0.011052174 -0.065374866
0.17938866 0.19052283 -0.10696566 -0.09296416 0.06871258 -0.101101354 -0.16089067 -0.15023683
0.027311385 -0.07797132 0.13097517 -0.010255198 -0.1533243 0.07660223 -0.04082435 -0.15524223
0.11370009 0.0919309 -0.10232748 -0.14184332 0.02907428 -0.0732408 0.008110517 0.09369679
0.10341084 0.03275316 0.07976045 -0.014045145 0.19540766 0.0985152 -0.07000852 0.1044002
0.1654268 -0.028407756 -0.13737509 0.0005413193 0.0045009665 -0.07546591 0.18459015 -0.006097857
0.0036619983 0.16271986 0.075213954 -0.10089112 0.040332906 0.058529958 0.14072001 -0.005018317
0.05733904 0.15528983 0.037025783 0.17113407 -0.019575743 0.06385369 -0.059545234 0.1540931
0.19344848 0.14042531 0.010813641 -0.035792142 0.11404171 -0.089326896 0.17641492 0.077147745
-0.07386593 0.15015924 -0.025114173 0.0045060096 0.007465734 0.020222805 -0.13397089 -0.16843653
0.06116794 0.09489437 -0.09815813 0.05940499 0.18623827 0.0440861 0.031054024 -0.023681927
0.087057024 0.038817286 0.099095285 0.07444739 -0.132576 -0.0070867753 -0.0068285884 0.16281785
0.08514424 0.1555833 0.11854781 -0.13646333 -0.10591184 -0.032538384 -0.1597106 0.17565231
0.078699365 -0.07389656 -0.17609763 0.06735881 -0.17021954 0.17359556 0.09240736 0.17553507
0.0916297 -0.04789093 0.07702322 0.07309796 -0.08730838 -0.0963156 0.18046622 0.16910757
0.07574044 0.055593446 0.181621 -0.028970867 -0.14294629 -0.13900623 -0.15572934 0.18346487
-0.085676506 0.008347571 -0.04735975 0.04289277 -0.088623814 0.14256458 -0.03724608 0.18284924
0.097068354 -0.13895366 -0.18451366 0.15858795 -0.13142738 -0.14952885 0.1731752 -0.13226232
-0.12252828 0.13146777 0.009721591 0.15216087 -0.1371872 0.0898608 -0.008498624 0.18359242
-0.02222879 -0.041088358 0.16873182 -0.00685367 -0.18797252 0.08186792 -0.14326596 -0.054684997
-0.0374752 -0.112287134 0.19118415 -0.16102901 -0.16775861 -0.15359703 -0.012131318 0.1707626
-0.1248724 -0.18145153 -0.1831241 0.12735261 -0.069657385 -0.1270408 0.13142233 0.030973405
-0.09172911 -0.15286379 -0.121758305 0.13827705 -0.16574007 0.054084167 0.1417101 0.009778798
-0.06455253 0.038110323 -0.02751796 -0.12611052 0.07055123 0.08950107 0.10879956 0.05862488
00000000: 0913 cebd 6579 173e 800c fdbd d785 f2bd
00000010: 579e 563c fdf3 40be b451 b33d eaf6 c73c
00000020: 4fc5 21bc 5ec0 253e 9126 06be 03c9 873d
00000030: f1ec 19be 5110 e73a f5e3 a2bd 3b41 c8bc
00000040: d3c2 0b3e a0ae f43d 57b1 fe3d 4cd0 1b3e
00000050: a5d9 00be 307c 38be 1215 093e c8b6 39be
00000060: e17d 91bd 754c c83d f016 1e3d a35d 593d
00000070: 989c 3fbd a9b8 ea3d 2915 44bd 2197 01be
00000080: aa79 6abc 7df0 02be e27c 1bbe cdb3 2fbe
00000090: 0b8c 3a3e ca04 053e 51ef bbbd f062 933d
000000a0: 017b 26be 5286 c33c a326 30be 624f 293e
000000b0: 7ac2 ab3d 7bec 5b3d a0e1 39be 2f50 573d
000000c0: da85 373e 117f 10be af7b 53bd 4149 d7bb
000000d0: 3dba 8abc e1d3 943d d31a 0f3e 80b6 a6bc
000000e0: 77e3 2d3e 6c4c 6b3d 92e7 d83d 9bce 57bd
000000f0: 0074 eabd 4a30 0d3e 571a a4bd fe14 31be
00000100: 8772 0ebd 6260 febd 36c7 513d 0aa9 3abe
00000110: 423e 13bd 45bc 9ebd 2d14 353c 42e3 85bd
00000120: a9b1 373e 6b18 433e d010 dbbd fe63 bebd
00000130: 2eb9 8c3d 3a0e cfbd 86c0 24be afd7 19be
00000140: 20bc df3c 6daf 9fbd 5b1e 063e 6b05 28bc
00000150: 0c01 1dbe a1e1 9c3d 6f37 27bd d2f7 1ebe
00000160: 98db e83d 4546 bc3d 1291 d1bd 603f 11be
00000170: 2f2d ee3c 46ff 95bd f9e1 043c 1ae4 bf3d
00000180: 10c9 d33d 2d28 063d 7259 a33d 9c1d 66bc
00000190: f218 483e 56c2 c93d a060 8fbd c6cf d53d
000001a0: a565 293e 62b7 e8bc 0eac 0cbe 53e7 0d3a
000001b0: d87c 933b df8d 9abd 3305 3d3e 88d0 c7bb
000001c0: 23fe 6f3b 09a0 263e c609 9a3d 01a0 cebd
000001d0: 1e34 253d 1cbd 6f3d e818 103e b270 a4bb
000001e0: 57dc 6a3d 4c04 1f3e 59a8 173d c53d 2f3e
000001f0: 4f5d a0bc b9c5 823d b4e5 73bd 95ca 1d3e
00000200: 5c17 463e a7cb 0f3e b32b 313c c89a 12bd
00000210: b38e e93d 05f1 b6bd 1da6 343e a3ff 9d3d
00000220: 0547 97bd 58c3 193e 3dbc cdbc 26a7 933b
00000230: 1ea3 f43b 4caa a53c aa2f 09be a07a 2cbe
00000240: 3c8b 7a3d fb57 c23d 2107 c9bd a652 733d
00000250: 3fb5 3e3e a093 343d 0265 fe3c 9a00 c2bc
00000260: f44a b23d e0fe 1e3d 78f2 ca3d e077 983d
00000270: 01c2 07be 2e38 e8bb 5ac2 dfbb b9b9 263e
00000280: 1a60 ae3d 3b51 1f3e 32c9 f23d 0bbd 0bbe
00000290: 4fe8 d8bd f846 05bd 2d8b 23be 33de 333e
000002a0: 222d a13d 1457 97bd f052 34be 6af3 893d
000002b0: 084e 2ebe 09c3 313e 1240 bd3d 77bf 333e
000002c0: 5aa8 bb3d 4829 44bd 5abe 9d3d 62b4 953d
000002d0: bcce b2bd 1d41 c5bd 23cc 383e 892a 2d3e
000002e0: ce1d 9b3d f4b5 633d dbfa 393e 5054 edbc
000002f0: 8360 12be a657 0ebe 8377 1fbe 37de 3b3e
00000300: 2a77 afbd 40c4 083c 4cfc 41bd 54b0 2f3d
00000310: 6780 b5bd 73fc 113e 588f 18bd d53c 3b3e
00000320: c6cb c63d de49 0ebe 26f1 3cbe e164 223e
00000330: e694 06be 171e 19be d754 313e c66f 07be
00000340: 1bf0 fabd 7d9f 063e 4f47 1f3c 0fd0 1b3e
00000350: cd7a 0cbe f008 b83d d03d 0bbc a7ff 3b3e
00000360: 2719 b6bc 444c 28bd 09c8 2c3e c094 e0bb
00000370: de7b 40be 5eaa a73d 50b4 12be 60fd 5fbd
00000380: 987f 19bd ccf6 e5bd c7c5 433e cae4 24be
00000390: eac8 2bbe 8a48 1dbe 70c2 46bc 64dc 2e3e
000003a0: 1abd ffbd 6ece 39be e284 3bbe b968 023e
000003b0: 88a8 8ebd fc16 02be 9393 063e f0bb fd3c
000003c0: 79dc bbbd 5388 1cbe 6b5c f9bd 8098 0d3e
000003d0: c4b7 29be 5c87 5d3d 741c 113e 4037 203c
000003e0: 1e34 84bd 9219 1c3d 586d e1bc 1e23 01be
000003f0: 2a7d 903d 564c b73d 4ed2 de3d a420 703d

conv1.bias f4 [100]
-0.050937217 -0.02570194 -0.035491135 0.058132388 -0.013174738 0.004868348 0.048903726 0.06700667
0.06867784 0.04798854 -0.00023405427 0.03747634 -0.07365375 -0.016130112 0.05409988 -0.023745215
0.07536116 -0.040112697 0.049377136 -0.061167892 -0.05501496 0.05200421 0.07594214 0.037969317
0.046151333 -0.018301733 -0.0051500695 0.07005922 -0.016720554 -0.05202049 -0.06282784 0.001079388
0.07575127 0.06095691 -0.039534576 -0.028125975 -0.041616913 -0.03553073 -0.018952336 -0.040032335
-0.07424093 0.07630582 0.0053012013 -0.028639141 -0.07020106 0.0075411946 0.037678346 0.029740147
-0.026501771 -0.0225792 0.028766233 -0.06218787 0.028290454 -0.016522072 0.04628034 0.037972324
0.023887625 -0.04017198 0.054029755 -0.0024253218 -0.032453652 -0.03685518 0.04641892 0.044709515
0.0038710085 0.060059477 -0.077785365 0.035100155 -0.013370223 -0.052712373 -0.04139963 0.043815862
-0.05814073 -0.07479591 -0.03526827 0.072632164 -0.057203624 -0.026603257 0.013007217 -0.018286947
-0.028946195 -0.07080805 -0.06570371 -0.068718456 0.018463649 -0.07202391 0.03286472 -0.004388194
0.0034987032 0.005495116 -0.022718476 -0.05039675 0.04161653 -0.016311806 0.02612757 0.051391855
-0.039370958 0.021945529 0.0061928756 0.060903225
00000000: 8ba3 50bd e08c d2bc 275f 11bd 3a1c 6e3d
00000010: dbda 57bc aa86 9f3b 464f 483d cb3a 893d
00000020: f8a6 8c3d a28f 443d 776c 75b9 ca80 193d
00000030: c7d7 96bd 4c23 84bc d697 5d3d 5385 c2bc
00000040: f456 9a3d 364d 24bd ae3f 4a3d 2f8b 7abd
00000050: 5e57 61bd 5e02 553d 8d87 9b3d b785 1b3d
00000060: 2e09 3d3d 84ed 95bc eac1 a8bb 357b 8f3d
00000070: 8bf9 88bc 7013 55bd e2ab 80bd 407a 8d3a
00000080: 7b23 9b3d f4ad 793d 02ef 21bd 7268 e6bc
00000090: 7f76 2abd ac88 11bd ee41 9bbc f2f8 23bd
000000a0: a10b 98bd 3a46 9c3d b3b5 ad3b a29c eabc
000000b0: 93c5 8fbd 201c f73b 9c54 1a3d 9ca1 f33c
000000c0: 3e1a d9bc 04f8 b8bc 2aa7 eb3c b5b8 7ebd
000000d0: 62c1 e73c 4c59 87bc 7490 3d3d de88 1b3d
000000e0: fbaf c33c 608b 24bd 4e4e 5d3d 26f2 1ebb
000000f0: 1fee 04bd 75f5 16bd c421 3e3d 5321 373d
00000100: bfb0 7d3b ed00 763d ef4d 9fbd 2ec5 0f3d
00000110: c80e 5bbc eee8 57bd a992 29bd 4378 333d
00000120: f924 6ebd 992e 99bd 7675 10bd 2cc0 943d
00000130: 594e 6abd 13ef d9bc 391c 553c 82ce 95bc
00000140: 9220 edbc d003 91bd ab8f 86bd 43bc 8cbd
00000150: 1441 973c 4681 93bd 289d 063d d7ca 8fbb
00000160: 804a 653b 6010 b43b 191c babc d36c 4ebd
00000170: 1876 2a3d 56a0 85bc 7c09 d63c 4480 523d
00000180: 7143 21bd 1cc7 b33c 9bed ca3b a975 793d

conv1_bn.weight f4 [100]
1.000824 1.0012189 1.0033883 1.0003107 1.0011326 1.0017066 0.9988242 1.001588
1.0072998 1.0008527 1.0000311 0.9987298 0.9933176 0.9971069 0.9940778 0.9955714
1.0018426 0.9982687 1.000712 1.0007665 0.99949574 0.9952718 1.0001645 1.0000057
1.0046692 0.99745846 1.0018861 0.99924415 0.9974185 1.003271 1.0005646 0.9999221
1.0006824 0.9976084 0.99005085 1.0004241 1.0031575 0.9983567 1.0006064 0.99798816
0.9970993 1.0022429 0.9946028 1.0 0.99707156 1.0008537 1.0023948 1.0004424
1.0 1.0 1.0028708 0.99862194 1.0043076 0.9999805 1.0024123 1.0013539
0.9993008 1.0002646 1.0067819 1.0010457 0.99821717 1.0006949 1.0010923 1.001713
0.99628836 0.99896556 1.0011164 0.9947636 1.0004677 1.0 0.9981937 1.0053394
0.9977235 1.0025189 1.0045795 0.99901557 1.0004085 1.000329 1.0034714 0.99266684
1.0026954 1.0000743 1.0061553 0.99973243 0.9994571 1.0000613 0.9981032 1.0012335
0.99749 1.003243 0.9983643 1.0020125 0.9998345 0.99985147 1.0026547 0.9907841
1.0007602 1.0004624 1.0008353 1.0004534
00000000: 001b 803f f127 803f 076f 803f 2e0a 803f
00000010: 1d25 803f ec37 803f f1b2 7f3f 0934 803f
00000020: 33ef 803f f11b 803f 0501 803f c2ac 7f3f
00000030: 104a 7e3f 6642 7f3f e27b 7e3f c4dd 7e3f
00000040: 613c 803f 8a8e 7f3f 5517 803f 1e19 803f
00000050: f4de 7f3f 22ca 7e3f 6405 803f 3000 803f
00000060: 0099 803f 7059 7f3f ce3d 803f 77ce 7f3f
00000070: d256 7f3f 2f6b 803f 8012 803f e5fa 7f3f
00000080: 5c16 803f 4463 7f3f f973 7d3f e60d 803f
00000090: 7767 803f 4e94 7f3f df13 803f 277c 7f3f
000000a0: e641 7f3f 7f49 803f 4a9e 7e3f 0000 803f
000000b0: 1540 7f3f f91b 803f 794e 803f 7f0e 803f
000000c0: 0000 803f 0000 803f 125e 803f b0a5 7f3f
000000d0: 278d 803f b9fe 7f3f 0c4f 803f 5d2c 803f
000000e0: 2dd2 7f3f ac08 803f 3bde 803f 4422 803f
000000f0: 298b 7f3f c516 803f cb23 803f 2238 803f
00000100: c10c 7f3f 35bc 7f3f 9524 803f d4a8 7e3f
00000110: 530f 803f 0000 803f 9f89 7f3f f6ae 803f
00000120: cf6a 7f3f 8a52 803f 1096 803f 7cbf 7f3f
00000130: 630d 803f c80a 803f c071 803f 6a1f 7e3f
00000140: 5358 803f 6f02 803f b2c9 803f 77ee 7f3f
00000150: 6cdc 7f3f 0202 803f b183 7f3f 6b28 803f
00000160: 815b 7f3f 446a 803f ce94 7f3f f241 803f
00000170: 27f5 7f3f 44f6 7f3f fd56 803f 07a4 7d3f
00000180: e918 803f 270f 803f 5f1b 803f db0e 803f

conv1_bn.bias f4 [100]
0.001804304 0.0012261934 0.0007351625 -0.0011236618 -0.0030360722 -0.0017634566 -0.00065485307 0.0024795763
0.0075339447 0.0048420765 0.0013941359 -0.003689686 0.001254394 0.0055694617 -0.0013760104 -0.00062724453
0.00029053347 -0.0015685899 0.00041114647 -0.0009078103 0.004275857 -0.001418544 0.003831345 -0.0042029396
-0.0047886157 -0.0009205576 0.00068006094 -0.0039225845 0.0016770667 0.0030917474 -0.00031374837 -0.0032632628
0.003187208 0.0012132102 0.001901086 0.0030426222 -0.0019604145 0.002503752 -0.0019729277 0.00074963603
-0.0012383359 -0.0023205078 0.0008178623 6.9404035e-05 0.0010807868 0.0014649621 0.001557462 0.0009091871
0.00023122375 0.005726491 -0.0010477264 -0.0010609914 -0.0014493015 0.0013627758 -0.0014923157 -0.005729962
0.0055960813 -0.0021643224 0.0017369676 -0.004768197 -0.00042865035 0.0033335055 -0.0012268389 0.006543
-0.0011253703 0.0021329608 0.0013737972 -7.616345e-05 -0.0036943806 -2.6242844e-05 -0.0006015401 0.001202071
-0.0014075077 0.00018140257 0.003376411 0.0011201394 0.000522053 -0.0055738436 0.0013216212 -0.00047675043
-0.00080988137 -0.0046251463 0.0026138625 -0.0019519357 -0.0004528727 0.0009853786 0.0002676146 -0.0015201808
-0.0005867839 0.004022907 0.005510838 0.0021328016 0.004334613 -0.0013176616 0.003141156 0.0030386578
0.0003075617 0.0063318163 0.0007806058 0.00032850224
00000000: 657e ec3a 39b8 a03a ecb7 403a d547 93ba
00000010: d7f8 46bb c923 e7ba 72aa 2bba 6380 223b
00000020: 4fdf f63b 48aa 9e3b 70bb b63a a9ce 71bb
00000030: 7a6a a43a 0880 b63b 3f5b b4ba ab6d 24ba
00000040: be52 9839 2599 cdba 258f d739 1efa 6dba
00000050: 7d1c 8c3b 70ee b9ba 4d17 7b3b d0b8 89bb
00000060: d2e9 9cbb 9351 71ba 1e46 323a 0689 80bb
00000070: 05d1 db3a ea9e 4a3b 987e a4b9 77dc 55bb
00000080: 7ae0 503b 9404 9f3a dc2d f93a bb66 473b
00000090: 4c7a 00bb fd15 243b 3c4c 01bb 3983 443a
000000a0: a84f a2ba a913 18bb cf65 563a 028d 9138
000000b0: 30a9 8d3a f903 c03a c123 cc3a 8356 6e3a
000000c0: a774 7239 4aa5 bb3b dd53 89ba f710 8bba
000000d0: 7df6 bdba 2b9f b23a ce99 c3ba 68c2 bbbb
000000e0: 555f b73b 4ed7 0dbb f6aa e33a 893e 9cbb
000000f0: 7abc e0b9 f176 5a3b e2cd a0ba aa66 d63b
00000100: 2981 93ba 25c9 0b3b fc10 b43a f1b9 9fb8
00000110: 6c1d 72bb 1424 dcb7 acb0 1dba cf8e 9d3a
00000120: 1f7c b8ba e236 3e39 c746 5d3b a4d1 923a
00000130: 62da 083a caa4 b6bb 403a ad3a 5cf4 f9b9
00000140: 384e 54ba 8a8e 97bb 564d 2b3b 18d8 ffba
00000150: 8b6f edb9 d227 813a a04e 8c39 ce40 c7ba
00000160: 67d2 19ba 97d2 833b 4294 b43b 79c6 0b3b
00000170: 5f09 8e3b 63b5 acba dadb 4d3b 3824 473b
00000180: 3c40 a139 207b cf3b 92a1 4c3a d33a ac39

conv1_bn.running_mean f4 [100]
282.25885 0.82685804 279.14648 4.9671087 1.0305949e-16 1.7700225 5.0173807 415.66675
117.17951 267.11346 0.00013621499 283.19974 176.58163 318.57422 455.86273 2.314703
1.5198648 0.26251408 478.73276 0.00014024893 505.91544 4.2245994 0.017093958 115.13716
1.6023827 107.02939 0.00064320094 382.38675 228.03618 0.0008205553 309.72003 169.38354
295.41232 4.4263916 1.4616401 0.00010096773 2.7092206 60.340363 0.0005282208 861.7024
1.9015371 0.64099014 2.5580912 0.0 360.21915 671.52545 884.2294 800.19464
0.0 0.0 98.13729 595.0771 0.785591 1.2350465e-20 3.6568651 0.6335664
1.3262535 1.5923798 369.1154 1.7252839 250.2107 96.95068 0.0018499816 2.130446
1.5187994 0.0024281805 703.3596 5.6268234 0.00036630043 0.0 43.80193 63.605877
2.0815089 1.4282707 617.4516 0.0029425458 2.5966976 308.302 180.8274 426.63312
0.38408136 564.1252 386.22525 905.78796 0.5587125 1.3087281e-20 524.00995 568.22284
971.47906 780.787 3.297771 0.012261735 220.92914 0.174481 544.32733 3.2020848
6.185807 820.8053 3.4780078 3.407511
00000000: 2221 8d43 f8ac 533f c092 8b43 8ef2 9e40
00000010: 96a3 ed24 1990 e23f 628e a040 58d5 cf43
00000020: e95b ea42 868e 8543 efd4 0e39 9199 8d43
00000030: e694 3043 8049 9f43 6eee e343 1824 1440
00000040: ee8a c23f 3f68 863e cb5d ef43 c90f 1339
00000050: 2df5 fc43 eb2f 8740 a108 8c3c 3a46 e642
00000060: e01a cd3f 0c0f d642 7c9c 283a 8131 bf43
00000070: 4309 6443 891a 573a 2adc 9a43 3062 2943
00000080: c7b4 9343 00a5 8d40 0617 bb3f a3be d338
00000090: df63 2d40 885c 7142 4c78 0a3a f46c 5744
000000a0: 9165 f33f ee17 243f c4b7 2340 0000 0000
000000b0: 0d1c b443 a1e1 2744 ae0e 5d44 750c 4844
000000c0: 0000 0000 0000 0000 4b46 c442 efc4 1444
000000d0: 7e1c 493f 2f4b 691e 140a 6a40 6831 223f
000000e0: adc2 a93f 1ad3 cb3f c58e b843 1ad6 dc3f
000000f0: f035 7a43 c0e6 c142 157b f23a 3a59 0840
00000100: 0568 c23f 1c22 1f3b 04d7 2f44 f00e b440
00000110: 030c c039 0000 0000 2d35 2f42 6b6c 7e42
00000120: 7137 0540 93d1 b63f e75c 1a44 bad7 403b
00000130: 4b30 2640 a826 9a43 d0d3 3443 0a51 d543
00000140: 50a6 c43e 0308 0d44 d51c c143 6e72 6244
00000150: c807 0f3f 3536 771e a300 0344 430e 0e44
00000160: a9de 7244 5e32 4344 ae0e 5340 72e5 483c
00000170: dced 5c43 26ab 323e f314 0844 f5ee 4c40
00000180: 22f2 c540 8a33 4d44 ae97 5e40 a914 5a40

conv1_bn.running_var f4 [100]
2956.354 47.963177 2354.8845 1433.7032 3.3204812e-15 307.64798 1385.257 4877.5273
631.4644 2879.69 0.0082906345 3734.3486 1843.2523 2992.902 9586.682 367.4705
457.37192 14.731344 6438.432 0.010871865 7781.114 989.2789 0.82718647 786.2843
525.8096 3412.9343 0.027947363 5580.534 2476.0342 0.08513602 3151.444 1140.817
2295.9983 1032.4486 149.40213 0.004555152 503.07074 484.18216 0.072678186 23352.324
196.00032 84.609055 450.95972 7.943798e-16 6704.148 11794.64 23351.816 19785.541
7.943798e-16 7.943798e-16 869.715 11421.111 126.2549 7.943798e-16 691.8003 32.541203
104.745026 174.3441 4208.0166 146.13683 2834.5107 408.73074 8.1139384e-05 930.821
211.59499 0.00013977943 13301.002 1627.1129 0.03615025 7.943798e-16 352.09448 609.271
296.1664 419.39456 12057.666 0.00020527121 463.26395 2605.3218 1115.7286 6999.1646
31.948236 12406.705 4923.304 24889.096 64.09937 7.9439054e-16 7322.201 11861.647
28558.936 15942.553 563.46686 0.73858196 2282.4949 6.8345976 9475.85 530.02075
2050.0938 22657.889 960.3029 806.4927
00000000: aac5 3845 4bda 3f42 272e 1345 8136 b344
00000010: 1144 6f27 f1d2 9943 3928 ad44 386c 9845
00000020: b9dd 1d44 0afb 3345 71d5 073c 9465 6945
00000030: 1368 e644 6f0e 3b45 baca 1546 39bc b743
00000040: 9baf e443 96b3 6b41 7533 c945 e81f 323c
00000050: e928 f345 d951 7744 7ec2 533f 3292 4444
00000060: d073 0344 f34e 5545 def1 e43c 4664 ae45
00000070: 8cc0 1a45 cb5b ae3d 1bf7 4445 259a 8e44
00000080: f97f 0f45 5b0e 8144 f266 1543 6243 953b
00000090: 0e89 fb43 5117 f243 4dd8 943d a670 b646
000000a0: 1500 4443 d637 a942 d87a e143 e2f6 6426
000000b0: 2f81 d145 8f4a 3846 a26f b646 1593 9a46
000000c0: e2f6 6426 e2f6 6426 c36d 5944 7274 3246
000000d0: 8282 fc42 e2f6 6426 38f3 2c44 312a 0242
000000e0: 747d d142 1758 2e43 2280 8345 0723 1243
000000f0: 2c28 3145 895d cc43 6029 aa38 8bb4 6844
00000100: 5198 5343 c191 1239 02d4 4f46 9d63 cb44
00000110: 4912 143d e2f6 6426 180c b043 5851 1844
00000120: 4d15 9443 81b2 d143 aa66 3c46 123e 5739
00000130: c9a1 e743 26d5 2245 5177 8b44 51b9 da45
00000140: fd95 ff41 d2da 4146 6fda 9945 3172 c246
00000150: e132 8042 adf7 6426 9cd1 e445 9756 3946
00000160: df1d df46 361a 7946 e1dd 0c44 b513 3d3f
00000170: eba7 0e45 06b5 da40 660f 1446 5481 0444
00000180: 8021 0045 c703 b146 6313 7044 889f 4944

conv2.weight f4 [100, 100, 3]
0.033768877 -0.11176187 -0.10025622 0.12481289 0.106861934 -0.11074884 0.05602425 0.037207305
-0.10977919 0.07989457 -0.06066012 -0.060797915 -0.09678733 0.13544987 -0.113974564 -0.025068892
-0.034155805 -0.14107777 0.005540708 -0.13560009 -0.065590374 -0.035503943 -0.11690438 -0.0020457406
-0.027030263 -0.027888134 -0.06044735 0.12581182 0.096441865 -0.02762849 -0.054809544 -0.006401443
-0.01683255 0.10087624 -0.1080953 0.13786882 -0.04978001 -0.09221067 -0.13225147 0.042521935
0.13179524 -0.00877453 -0.11630353 0.12090007 -0.084315605 0.09968284 0.051882215 -0.09333209
0.14037143 -0.085039996 0.045632675 0.047534756 -0.031028979 0.023866808 -0.09988414 -0.052194484
0.096902944 -0.023564473 -0.110226 -0.062617 -0.043670107 0.09128819 -0.1298998 -0.10321977
-0.12280436 -0.0043579005 0.007647191 -0.13793486 -0.096276164 -0.015723633 -0.052545197 -0.001185185
0.1336862 0.106538974 0.026131334 0.10173193 0.13771449 -0.03319193 -0.054541342 0.004922525
-0.051264774 0.08540408 -0.08492005 0.09122021 0.037044976 0.040597316 0.06766478 -0.07941305
0.10977571 -0.009998956 -0.04000689 -0.035484016 0.12840998 -0.0736938 -0.08887766 0.12455033
0.13217452 0.11338462 -0.1250627 -0.043375283 -0.1396832 -0.03499499 -0.051767845 0.13668038
-0.09299078 -0.013814257 -0.046047866 0.029345866 -0.13613787 -0.0131718535 -0.10757868 -0.042553492
0.035247806 0.022181977 -0.12990654 -0.06826047 0.089364626 -0.0713554 -0.119501226 -0.07215011
-0.048948575 -0.008003353 -0.063967414 -0.041509077 0.12008308 0.09594321 -0.108478 0.031984873
-0.054625574 -0.0248987 -0.0018898721 -0.12529503 -0.057667047 0.022695413 -0.037870184 0.05730373
0.12403379 -0.08682232 0.095908836 0.035253596 0.046903778 0.039740708 -0.048362717 0.054928724
0.007960689 -0.015321392 -0.10512166 -0.10316441 -0.13694498 0.0067274566 0.09867349 -0.0179714
0.10734511 0.04046809 0.020270186 -0.023836825 -0.031728037 -0.07924779 -0.0768816 0.082651824
-0.09677373 -0.11718797 0.11664938 0.13179165 0.09408064 -0.14146112 -0.02673193 0.021277554
0.08427177 -0.10621113 0.10774855 0.09215783 0.13516605 -0.057300583 0.053955395 -0.052708805
-0.07695536 -0.064371735 0.05520005 0.037890323 -0.013548702 0.13960034 0.11710217 -0.038064536
-0.018587431 -0.0046206093 -0.116570614 -0.09843849 0.053595945 0.076161325 0.026020825 -0.11695731
-0.12240519 0.005442324 0.07232962 0.12502693 0.117507644 0.11704308 -0.008933237 -0.0753579
-0.032891423 -0.14288186 0.0021049422 -0.101248 0.047474153 0.08846889 0.09311389 -0.030232174
-0.10988409 -0.047458995 -0.11554272 -0.051503584 -0.07051108 -0.08952893 -0.120537154 -0.041531485
-0.09517652 -0.12928551 -0.068020575 0.11533182 -0.13410534 -0.11682835 0.09147797 -0.0030964154
-0.018863447 0.06913843 -0.09644303 0.04265887 0.0037130513 -0.11674457 -0.14049008 -0.13633037
0.13033545 0.12702432 -0.11043904 -0.06734202 0.058886487 -0.019098755 0.11069364 0.02446643
0.034000818 0.107353725 -0.02337502 0.09546705 -0.058873415 -0.099303365 0.02874544 -0.039048176
0.12993038 -0.013991861 -0.07374063 -0.07346498 -0.078060046 0.016763162 -0.035952825 0.010121102
00000000: 3c51 0a3d 68e3 e4bd 2253 cdbd e79d ff3d
00000010: 6eda da3d 4ad0 e2bd af79 653d b066 183d
00000020: e9d3 e0bd c49f a33d bf76 78bd 3c07 79bd
00000030: 7038 c6bd 5fb3 0a3e 7f6b e9bd 475d cdbc
00000040: f5e6 0bbd b176 10be d48e b53b c0da 0abe
00000050: 3f54 86bd 956c 11bd 906b efbd d511 06bb
00000060: 926e ddbc a875 e4bc a497 77bd d0d4 003e
00000070: 5083 c53d 2555 e2bc f97f 60bd 32c3 d1bb
00000080: 6ae4 89bc 3498 ce3d 1261 ddbd 7c2d 0d3e
00000090: 20e6 4bbd f3d8 bcbd ee6c 07be 7b2b 2e3d
000000a0: 55f5 063e 0cc3 0fbc 8c30 eebd 759a f73d
000000b0: a9ad acbd 8426 cc3d 7282 543d e524 bfbd
000000c0: 87bd 0f3e 7329 aebd 54e9 3a3d ceb3 423d
000000d0: 7c30 febc 5384 c33c 0e90 ccbd e2c9 55bd
000000e0: 0d75 c63d 480a c1bc 2bbe e1bd 573d 80bd
000000f0: 6ddf 32bd 4df5 ba3d 7404 05be e364 d3bd
00000100: da80 fbbd b8cc 8ebb 4a95 fa3b cc3e 0dbe
00000110: 702c c5bd d9ce 80bc a239 57bd 3658 9bba
00000120: 09e5 083e 1b31 da3d 6111 d63c d558 d03d
00000130: 0705 0d3e 43f4 07bd be66 5fbd 224d a13b
00000140: 03fb 51bd 56e8 ae3d 90ea adbd a9d1 ba3d
00000150: 79bc 173d 5f49 263d d593 8a3d 4fa3 a2bd
00000160: 16d2 e03d a9d2 23bc 44de 23bd b057 11bd
00000170: e87d 033e c6ec 96bd 7e05 b6bd 3e14 ff3d
00000180: c258 073e 3236 e83d 7010 00be 48aa 31bd
00000190: 1d09 0fbe e856 0fbd 850a 54bd f1f5 0b3e
000001a0: f371 bebd 3255 62bc b09c 3cbd be66 f03c
000001b0: ba67 0bbe c2ce 57bc 3652 dcbd 924c 2ebd
000001c0: 0160 103d fab6 b53c 3806 05be 25cc 8bbd
000001d0: cd04 b73d c822 92bd 0fbd f4bd 70c3 93bd
000001e0: 4d7e 48bd 7f20 03bc 5901 83bd 6c05 2abd
000001f0: 1eee f53d e07d c43d b729 debd 9202 033d
00000200: 11bf 5fbd 5cf8 cbbc 96b5 f7ba 574d 00be
00000210: 4834 6cbd bbeb b93c c41d 1bbd 51b7 6a3d
00000220: 6d05 fe3d e7cf b1bd da6b c43d 1366 103d
00000230: 2d1e 403d 27c7 223d fc17 46bd f1fc 603d
00000240: 8d6d 023c 9306 7bbc 064a d7bd dd47 d3bd
00000250: 4e3b 0cbe ff71 dc3b 5415 ca3d c238 93bc
00000260: c1d7 db3d dec1 253d a90d a63c 7245 c3bc
00000270: 42f5 01bd aa4c a2bd 1a74 9dbd 5c45 a93d
00000280: 4e31 c6bd 3f00 f0bd dfe5 ee3d 64f4 063e
00000290: 5aad c03d 2fdb 10be ecfc dabc 444e ae3c
000002a0: ae96 ac3d 3985 d9bd 46ab dc3d 3fbd bc3d
000002b0: f868 0a3e 04b4 6abd 5500 5d3d 30e5 57bd
000002c0: c69a 9dbd 54d5 83bd 7319 623d e232 1b3d
000002d0: 60fb 5dbc 64f3 0e3e 43d3 ef3d 8fe9 1bbd
000002e0: ab44 98bc 7b68 97bb 93bc eebd 1e9a c9bd
000002f0: 6c87 5b3d 78fa 9b3d a029 d53c 5087 efbd
00000300: 92af fabd 8655 b23b 8d21 943d 0f07 003e
00000310: d9a7 f03d 48b4 ef3d b65c 12bc 3e55 9abd
00000320: 28b9 06bd 9f4f 12be 12f3 093b 1d5b cfbd
00000330: 4274 423d 2d2f b53d 7fb2 be3d 77a9 f7bc
00000340: e90a e1bd 5d64 42bd a9a1 ecbd 6cf5 52bd
00000350: 1d68 90bd f25a b7bd 2fdc f6bd eb1c 2abd
00000360: e8eb c2bd 6c63 04be 5f4e 8bbd 1733 ec3d
00000370: e952 09be b443 efbd cd58 bb3d 3bed 4abb
00000380: 8487 9abc 7398 8d3d ec83 c5bd 11bb 2e3d
00000390: aa56 733b c717 efbd a2dc 0fbe 309a 0bbe
000003a0: a876 053e aa12 023e dd2d e2bd 9dea 89bd
000003b0: f532 713d fe74 9cbc 59b3 e23d d36d c83c
000003c0: 7144 0b3d 45dc db3d f87c bfbc 3b84 c33d
000003d0: 4025 71bd 905f cbbd 8f7b eb3c fbf0 1fbd
000003e0: 780c 053e 1e3e 65bc 5405 97bd cf74 96bd
000003f0: f2dd 9fbd e652 893c 4543 13bd fbd2 253c

conv2.bias f4 [100]
-0.010467405 0.03481424 -0.03853194 -0.041599713 0.037473854 0.009161932 -0.016292345 -0.04562365
0.04448852 -0.033998255 -0.04228254 0.044956043 0.034300946 0.033552203 0.0074154525 0.0053670467
-0.016138522 0.040190272 -0.045991663 0.019067165 0.041392244 -0.044543143 -0.047235 0.024617199
-0.015098711 -0.041740663 0.04595959 -0.0053009726 -0.034090135 0.050675713 0.041125704 0.0015675034
0.0042411024 -0.01502001 -0.044235446 -0.04424199 0.04419996 0.05109613 -0.012275821 -0.0143457195
0.032434262 0.0022729367 0.023961335 0.03341793 0.008618854 -0.0047911345 -0.031243593 0.028151188
-0.035727713 0.0047007706 -0.034503393 -0.058121305 -0.01934028 -0.047283716 0.029292032 0.00733975
-0.012811507 -0.05064289 -0.03284422 -0.030238612 0.031692952 -0.01062116 0.04767529 0.054264557
0.009845179 -0.021800052 -0.03049187 -0.018897634 0.027816823 -0.039686143 -0.017178547 -0.0411308
0.0068541258 -0.05637712 -0.04957099 0.01550731 -0.001516265 0.028818917 0.056801435 0.05522122
-0.03676771 0.037416317 0.014262176 -0.006735666 -0.024395697 0.031348098 0.043339875 0.005944597
0.05886885 0.0029648722 0.035252344 -0.03782236 0.0009832514 0.014863339 -0.044793136 -0.056086637
-0.032397937 0.023095766 -0.0017970043 -0.04840824
00000000: 7b7f 2bbc 6099 0e3d abd3 1dbd 7664 2abd
00000010: 2f7e 193d ee1b 163c 8677 85bc dddf 3abd
00000020: 9839 363d c141 0bbd 7530 2dbd d423 383d
00000030: 267f 0c3d 096e 093d 53fd f23b 0dde af3b
00000040: ef34 84bc 8e9e 243d c161 3cbd be32 9c3c
00000050: ea8a 293d df72 36bd 7d79 41bd 02aa c93c
00000060: 9560 77bc 42f8 2abd 1f40 3c3d c8b3 adbb
00000070: 19a2 0bbd 5691 4f3d 6d73 283d b074 cd3a
00000080: f2f8 8a3b 7d16 76bc 3a30 35bd 1737 35bd
00000090: 040b 353d 2d4a 513d 8620 49bc 4f0a 6bbc
000000a0: cad9 043d 8df5 143b 904a c43c 3de1 083d
000000b0: 1836 0d3c f3fe 9cbb 90f2 ffbc 529d e63c
000000c0: 3957 12bd ec08 9a3b 6e53 0dbd 9b10 6ebd
000000d0: 826f 9ebc 92ac 41bd d8f5 ef3c 4982 f03b
000000e0: 5be7 51bc eb6e 4fbd a987 06bd f7b6 f7bc
000000f0: 78d0 013d 6004 2ebc 2a47 433d 8344 5e3d
00000100: ac4d 213c 0696 b2bc 16ca f9bc 36cf 9abc
00000110: 1be0 e33c f08d 22bd 06ba 8cbc c578 28bd
00000120: 9398 e03b b2eb 66bd f30a 4bbd 5f12 7e3c
00000130: 69bd c6ba a615 ec3c 9fa8 683d a52f 623d
00000140: bd99 16bd da41 193d e7ab 693c ddb6 dcbb
00000150: 7cd9 c7bc dd66 003d 2785 313d e5ca c23b
00000160: 7720 713d 4d4e 423b c364 103d 9eeb 1abd
00000170: 71e0 803a 5d85 733c 0279 37bd 1abb 65bd
00000180: b3b3 04bd 5533 bd3c 7589 ebba b847 46bd

conv2_bn.weight f4 [100]
0.9922947 0.996573 0.9907057 0.9894864 0.9908091 0.9948321 0.9878382 0.98401344
0.98710954 0.98940396 0.9887622 0.993615 0.99463624 0.9951847 0.9832704 0.9912823
0.9909152 0.9907943 0.99073553 0.99372727 0.984468 0.983872 0.98213625 0.9842239
0.9876882 0.9945206 0.997061 0.9840675 0.9888807 0.9850215 0.9899961 0.98575354
0.9861715 0.9850761 0.98775166 0.9925934 0.9843461 0.9921055 0.9963695 0.98684055
0.99300045 0.9949179 0.9867932 0.9901348 0.98949885 0.98803914 0.9957258 0.98543274
0.9824153 0.9827671 0.98721975 0.99146986 0.99156576 0.98453313 0.9924646 0.98497146
0.9958713 0.990965 0.98690206 0.9946275 0.9904622 0.98198515 0.98770744 0.98601073
0.98592305 0.9814462 0.9845024 0.98511857 0.9941265 0.99481004 0.98668057 0.99190664
0.9855752 0.9941029 0.995383 0.99450725 0.99188685 0.99630064 0.98300207 0.9915241
0.98810536 0.9961239 0.9906021 0.98414034 0.9819088 0.99614334 0.9938513 0.98435897
0.99304765 0.98833513 0.99521494 0.9848263 0.99721557 0.98514074 0.9925588 0.98347026
0.9838811 0.983223 0.98296785 0.993515
00000000: 0707 7e3f 681f 7f3f e49e 7d3f fb4e 7d3f
00000010: aaa5 7d3f 51ad 7e3f f7e2 7c3f 4ee8 7b3f
00000020: 36b3 7c3f 9449 7d3f 851f 7d3f 8d5d 7e3f
00000030: 7ba0 7e3f 6dc4 7e3f 9cb7 7b3f adc4 7d3f
00000040: 9eac 7d3f b2a4 7d3f d8a0 7d3f e964 7e3f
00000050: 1806 7c3f 09df 7b3f 486d 7b3f 19f6 7b3f
00000060: 22d9 7c3f e798 7e3f 643f 7f3f d9eb 7b3f
00000070: 4927 7d3f 5e2a 7c3f 6270 7d3f 585a 7c3f
00000080: bc75 7c3f f32d 7c3f 4bdd 7c3f 9a1a 7e3f
00000090: 1bfe 7b3f a0fa 7d3f 1212 7f3f 95a1 7c3f
000000a0: 4735 7e3f f1b2 7e3f 7b9e 7c3f 7979 7d3f
000000b0: cc4f 7d3f 22f0 7c3f e3e7 7e3f 5245 7c3f
000000c0: 927f 7b3f a096 7b3f 6fba 7c3f f8d0 7d3f
000000d0: 41d7 7d3f 5d0a 7c3f 2912 7e3f 1727 7c3f
000000e0: 6cf1 7e3f e2af 7d3f 9da5 7c3f e89f 7e3f
000000f0: ee8e 7d3f 6163 7b3f 65da 7c3f 336b 7c3f
00000100: 7465 7c3f 0f40 7b3f 5908 7c3f bb30 7c3f
00000110: 137f 7e3f dfab 7e3f 1997 7c3f 98ed 7d3f
00000120: a84e 7c3f 877d 7e3f 6cd1 7e3f 0798 7e3f
00000130: 4cec 7d3f 8f0d 7f3f 06a6 7b3f 86d4 7d3f
00000140: 79f4 7c3f fa01 7f3f 1998 7d3f 9ff0 7b3f
00000150: 605e 7b3f 4003 7f3f 0a6d 7e3f f3fe 7b3f
00000160: 5f38 7e3f 8803 7d3f 68c6 7e3f 941d 7c3f
00000170: 8549 7f3f 2f32 7c3f 5518 7e3f b5c4 7b3f
00000180: a2df 7b3f 81b4 7b3f c8a3 7b3f 0057 7e3f

conv2_bn.bias f4 [100]
0.000100475016 0.0017044644 0.0013914364 -0.0007966553 -0.001236958 -0.0006666368 0.00021058257 0.0003985089
0.00058093516 0.0004480895 0.00014703596 0.0016199357 0.0006179997 0.0018545304 -0.00015282718 -0.00019382396
-0.00020500783 0.00032909916 -2.938889e-06 -0.0006485351 -0.0010108203 0.00052122946 -0.00079103967 -0.00010379751
0.0005153623 -0.00018738079 0.004701025 0.00015538858 -0.0002643357 -0.00072760147 -0.00012664168 0.0008461661
-0.00031637907 -0.00090417033 -0.0006997454 0.000951541 -0.0008871001 -0.00029310913 0.001252502 0.00020775835
0.0011829182 0.00086669147 0.0005862897 0.00058144185 -0.000101100246 0.00057782436 -0.002026217 -0.00087426533
-0.0004066948 0.00037311096 0.00031653992 0.00048887695 -0.00022004417 -0.0008291161 -0.00014897162 5.728413e-05
-0.0018991998 0.0005222571 0.00073431083 -0.0013140788 0.0015091266 0.00024999626 0.0007489332 0.0005773149
-0.00025253437 -0.00039672627 -0.00017309365 9.296188e-05 0.0013897864 -0.0013125482 -0.0005876934 -5.7989993e-05
0.0003263973 0.0015458433 -0.000294839 0.0007760696 -0.0008900983 -4.3573076e-05 -0.00015438329 0.0006878668
-0.00056002516 -0.0008809643 -0.00018641331 -7.491903e-06 -0.0004866732 0.0025887014 -0.00040370517 -0.0007174716
-0.00083497236 -0.00040619666 -0.0007623225 -0.00076599367 0.0023734025 0.00075200776 -0.0007129356 0.00036360297
-0.00040279448 -0.0004609741 -0.0005135605 -0.0008967026
00000000: 1db6 d238 5668 df3a dc60 b63a a2d6 50ba
00000010: 6c21 a2ba 3dc1 2eba d4cf 5c39 f6ee d039
00000020: e649 183a 8eed ea39 aa2d 1a39 0654 d43a
00000030: 4201 223a b713 f33a 3c40 20b9 393d 4bb9
00000040: 5ff7 56b9 f18a ac39 bb39 45b6 7402 2aba
00000050: 807d 84ba 1ea3 083a c65d 4fba ddad d9b8
00000060: 6119 073a a67b 44b9 0e0b 9a3b ceef 2239
00000070: 8996 8ab9 82bc 3eba 1ecb 04b9 3fd1 5d3a
00000080: aedf a5b9 d805 6dba 1e6f 37ba d670 793a
00000090: 488c 68ba 71ac 99b9 fe2a a43a b5d9 5939
000000a0: 260c 9b3a ae32 633a 3cb1 193a e76b 183a
000000b0: c805 d4b8 2379 173a 48ca 04bb f42e 65ba
000000c0: a739 d5b9 1b9e c339 45f5 a539 fa27 003a
000000d0: a8bb 66b9 0a59 59ba 4435 1cb9 5e44 7038
000000e0: 92ee f8ba 15e8 083a c47e 403a 2b3d acba
000000f0: e3cd c53a ee11 8339 0e54 443a f256 173a
00000100: 9766 84b9 b3ff cfb9 7980 35b9 87f4 c238
00000110: 7e29 b63a cf09 acba 700f 1aba 483a 73b8
00000120: 4e20 ab39 e59d ca3a 9f94 9ab9 2671 4b3a
00000130: 7c55 69ba 3cc2 36b8 f3e1 21b9 f651 343a
00000140: a7ce 12ba 83f0 66ba f177 43b9 f562 fbb6
00000150: 2c28 ffb9 34a7 293b 64a8 d3b9 b414 3cba
00000160: 0ce2 5aba cbf6 d4b9 99d6 47ba f7cc 48ba
00000170: 168b 1b3b 6322 453a 4ce4 3aba f7a1 be39
00000180: 292e d3b9 e5ae f1b9 76a0 06ba b110 6bba

conv2_bn.running_mean f4 [100]
0.31485417 0.34612116 0.27128166 0.39424852 0.39955348 0.32635444 0.31240958 0.41944262
0.23377858 0.24386734 0.2489858 0.36829343 0.3089099 0.28710696 0.4330654 0.349563
0.27034092 0.21455131 0.16133724 0.12784378 0.33506662 0.27081767 0.43782014 0.31618848
0.3753732 0.42646113 0.29610705 0.46581602 0.2156228 0.3754127 0.26237994 0.34242314
0.3984808 0.3983273 0.25144395 0.19613971 0.38755617 0.60079217 0.3818372 0.34375608
0.43450454 0.25283495 0.5229988 0.21643025 0.25844893 0.44172624 0.192496 0.3081353
0.2675267 0.4550642 0.33345047 0.2412446 0.1001658 0.61395687 0.34817797 0.50537115
0.38340348 0.1644128 0.4900741 0.15230857 0.2715503 0.4525915 0.3624641 0.32282868
0.42471644 0.46151096 0.6017769 0.5500007 0.17233008 0.31666273 0.15221585 0.27801508
0.36145878 0.20865156 0.17312197 0.19386451 0.32546726 0.2534068 0.47544578 0.37948263
0.16598782 0.49207944 0.22578025 0.32231858 0.5967087 0.30803603 0.22418362 0.37867323
0.23689893 0.29608026 0.23215798 0.4649824 0.49378157 0.5257407 0.40040228 0.317935
0.40710825 0.40231615 0.56498104 0.20307246
00000000: 9134 a13e cb36 b13e 6ee5 8a3e f1da c93e
00000010: 4692 cc3e ee17 a73e 26f4 9f3e 2fc1 d63e
00000020: a763 6f3e 5cb8 793e 22f6 7e3e f590 bc3e
00000030: 7029 9e3e afff 923e c0ba dd3e ecf9 b23e
00000040: 206a 8a3e 57b3 5b3e 9735 253e 7be9 023e
00000050: da8d ab3e 9da8 8a3e f629 e03e 75e3 a13e
00000060: eb30 c03e 1d59 da3e 589b 973e 707f ee3e
00000070: 39cc 5c3e 1836 c03e aa56 863e 1652 af3e
00000080: ad05 cc3e 8ef1 cb3e 43bd 803e d9d8 483e
00000090: c36d c63e 84cd 193f 2a80 c33e cc00 b03e
000000a0: 6177 de3e 9573 813e 40e3 053f e49f 5d3e
000000b0: 6b53 843e f129 e23e ac1d 453e e9c3 9d3e
000000c0: 42f9 883e 2dfe e83e 05ba aa3e d308 773e
000000d0: ba23 cd3d 472c 1d3f 6244 b23e 0160 013f
000000e0: 764d c43e d45b 283e feea fa3e c7f6 1b3e
000000f0: a408 8b3e 13ba e73e e594 b93e cd49 a53e
00000100: 6f74 d93e 2a4b ec3e 0d0e 1a3f d9cc 0c3f
00000110: 4c77 303e 9e21 a23e 79de 1b3e fe57 8e3e
00000120: 2011 b93e c1a8 553e e346 313e 6b84 463e
00000130: a5a3 a63e 89be 813e a16d f33e 8c4b c23e
00000140: b6f8 293e d6f1 fb3e f032 673e f106 a53e
00000150: e7c1 183f e6b6 9d3e 6490 653e 75e1 c13e
00000160: a295 723e d597 973e d2ba 6d3e 2c12 ee3e
00000170: f0d0 fc3e f196 063f 8701 cd3e 60c8 a23e
00000180: 7e70 d03e 62fc cd3e 99a2 103f 3af2 4f3e

conv2_bn.running_var f4 [100]
0.46357563 0.10878121 0.37442505 0.34474832 0.53409594 0.113047905 0.6455981 1.4066552
0.32989094 0.90412647 0.696716 0.32216805 0.1209516 0.24679986 3.6204662 0.4381521
0.09516567 0.33551115 0.2694816 0.21498899 0.6683405 0.70885754 2.5031772 1.0826946
0.43182078 0.11028935 0.08275678 2.3398027 0.21449393 1.1217085 0.12306345 2.1598766
1.257396 0.6884604 0.7335306 0.05593922 1.0582542 0.45989358 0.36414132 0.32327548
0.25133482 0.26340073 0.73008966 0.41156456 0.33736825 0.31139803 0.066871725 0.9192144
1.3534294 3.2299187 1.0811334 1.555472 0.17900303 3.3190455 0.09108415 2.3114078
0.14040378 0.51351166 0.5894685 0.03800829 0.14571224 2.189644 0.5158986 0.5630943
1.2375126 2.850298 5.5950193 3.0157087 0.11435911 0.057023663 0.18461958 0.52347004
0.8803187 0.21825977 0.045401305 0.16275436 0.19097984 0.058853637 3.7082634 0.22767958
0.36363548 0.1039618 0.57546246 1.0010716 7.731291 0.11135519 0.2335675 1.0202874
0.08368673 1.0757219 0.032130655 1.2798458 0.12056843 1.3110023 0.18518634 1.6595998
1.5041996 0.6168731 4.653941 0.118133165
00000000: c959 ed3e afc8 de3d a4b4 bf3e da82 b03e
00000010: 83ba 083f a985 e73d eb45 253f 470d b43f
00000020: 77e7 a83e d574 673f fb5b 323f 36f3 a43e
00000030: 79b5 f73d 1ab9 7c3e b8b5 6740 7955 e03e
00000040: 38e6 c23d 1ec8 ab3e 7ef9 893e 1326 5c3e
00000050: 5d18 2b3f b077 353f 0e34 2040 bd95 8a3f
00000060: 9d17 dd3e 62df e13d 637c a93d 54bf 1540
00000070: 4ca4 5b3e 2594 8f3f b108 fc3d 6b3b 0a40
00000080: 5af2 a03f f13e 303f a9c8 3b3f 8620 653d
00000090: e074 873f 2c77 eb3e bb70 ba3e 5d84 a53e
000000a0: f5ae 803e 76dc 863e 28e7 3a3f 97b8 d23e
000000b0: 88bb ac3e 906f 9f3e 0bf4 883d a351 6b3f
000000c0: 2d3d ad3f fdb6 4e40 9462 8a3f b519 c73f
000000d0: 924c 373e 3e6b 5440 548a ba3d 1bee 1340
000000e0: 02c6 0f3e 8075 033f 68e7 163f 95ae 1b3d
000000f0: 9735 153e 2123 0c40 ee11 043f f326 103f
00000100: d066 9e3f 486b 3640 660a b340 5f01 4140
00000110: 1c35 ea3d a591 693d ea0c 3d3e 2202 063f
00000120: 915c 613f 7d7f 5f3e b8f6 393d 14a9 263e
00000130: 3890 433e 8310 713d 3054 6d40 d624 693e
00000140: 6e2e ba3e ede9 d43d 8251 133f 1d23 803f
00000150: bc66 f740 310e e43d 522c 6f3e c798 823f
00000160: f363 ab3d 41b1 893f 6f9b 033d fdd1 a33f
00000170: 95ec f63d ecce a73f 7da1 3d3e c46d d43f
00000180: 9d89 c03f 65eb 1d3f 16ed 9440 cdef f13d

fc1.weight f4 [1, 2600]
-0.04204441 0.045333777 0.024460128 0.041365154 0.021492422 0.016114665 -0.037937943 -0.00017970601
-0.007353447 0.031940136 -0.0063527473 -0.027209075 0.0054092826 -0.041126657 0.0039591347 0.018618748
-0.019645737 0.024219638 0.002634067 0.026060555 0.0076575284 -0.049621258 -0.0026989796 -0.024455974
0.019217642 0.0035584273 -0.025469638 0.008039854 0.009334795 -0.014644454 -0.015619095 0.014972691
-0.026034791 0.033653162 0.026827874 -0.00903177 -0.03194833 -0.013020523 0.0059237164 0.057168353
0.0051821563 0.036984064 0.01421649 -0.026920456 -0.005739128 0.017750619 -0.040260136 -0.029715288
0.026319597 -0.028702749 -0.027159877 0.0064259283 -0.018907236 0.0022499727 0.03543149 -0.03644249
0.008493334 0.030005133 -0.0057536964 0.048158996 0.014120935 0.013216624 0.017943526 0.001985501
-0.022058377 0.0154102575 -0.03266394 -0.0156231485 -0.042878225 0.03302926 -0.046510186 -0.023542736
0.015959956 -0.022239985 -0.023631575 0.030298902 -0.008629133 -0.0018370335 0.0420429 0.006302102
-0.027206816 0.0056861 -0.013239534 -0.024395086 0.040711198 0.03251119 0.032894153 -0.018134136
-0.040870573 -0.022378337 -0.018555472 0.05398337 -0.030285444 0.03272843 0.016819526 -0.008520204
0.011778728 0.037188794 0.031966377 -0.008933191 -0.00532562 0.03747006 -0.0013082618 -0.0022999072
-0.016426373 0.048215307 0.01452457 0.049823266 -0.032984167 0.014304436 -0.033706877 -0.029943597
0.03161983 -0.010046192 -0.015775755 -0.0070133447 -0.0050481916 -4.3431486e-05 -0.017917233 0.016692406
0.014542313 0.03404718 -0.023495397 0.050280236 0.040185712 0.013071765 0.009452042 0.014186931
-0.03832334 0.052162778 0.012568065 -0.009044207 0.009640082 0.047746208 -0.035721414 -0.034642532
-0.002234452 0.00797532 0.016404886 -0.022536594 0.004820578 0.021686014 -0.01679442 -0.017368719
0.049475532 0.022154346 0.017733907 0.056167442 0.011201194 0.052354794 0.015248219 0.023339387
0.050350536 -0.018665899 -0.030929832 -0.008252352 0.026058644 0.034912873 0.001527733 -0.03709276
0.027024057 -0.04671447 0.017064 -0.013572451 -0.00987908 0.0062114424 -0.010426449 0.004358786
-0.0134511115 -0.028762922 -0.02315234 -0.01545148 0.0033046633 -0.015062179 -0.0139004495 -0.0025129828
0.0227298 0.030913034 -0.021609396 0.010652889 -0.030395806 0.020431863 -0.038798153 -0.009099626
0.017516775 0.036392026 0.025471475 -0.032164525 -0.047937136 -0.004571309 -0.02924767 -0.03277391
-0.036960244 -0.049449027 -0.0028577927 0.015764283 -0.044164926 -0.017858885 0.020001492 0.0147943795
-0.0043230024 -0.008936531 -0.0073315883 -0.027109819 -0.024312079 -0.0004746269 -0.02767321 0.0039472026
0.006104603 -0.028430736 -0.037916318 0.0056904545 -0.033978887 0.01973165 -0.024824524 0.05039859
-0.014735549 0.009135039 -0.0005073739 0.0035884727 0.006529895 0.034588553 -0.021209346 -0.0013498178
-0.018470703 -0.010418156 0.013809073 0.032445088 -0.0037165289 0.0017802864 -0.032606587 0.006247865
-0.033129565 -0.008923545 -0.025449764 0.002928685 -0.027004829 0.010106129 0.0190781 0.013148325
-0.015554414 -0.024800457 0.04221872 -0.038471002 0.013377807 -0.015625061 -0.03548175 -0.022394039
-0.029339578 -0.0072955955 -0.0045072148 -0.013368002 0.018493835 -0.026514262 -0.035415627 0.022406254
00000000: c236 2cbd e9af 393d 9b60 c83c 826e 293d
00000010: e010 b03c e702 843c d164 1bbd 776f 3cb9
00000020: 2ff5 f0bb a9d3 023d b52a d0bb 91e5 debc
00000030: 5a40 b13b 6d74 28bd a1bb 813b 5886 983c
00000040: 19f0 a0bc 4368 c63c 50a0 2c3b f27c d53c
00000050: 01ec fa3b a93f 4bbd 5de1 30bb e557 c8bc
00000060: 516e 9d3c 8134 693b b4a5 d0bc 97b9 033c
00000070: f8f0 183c 4bef 6fbc 3ce7 7fbc 0550 753c
00000080: ea46 d5bc e6d7 093d 21c6 db3c fdf9 13bc
00000090: 41dc 02bd 0854 55bc bc1b c23b 5d29 6a3d
000000a0: 14cf a93b 9a7c 173d 48ec 683c 4a88 dcbc
000000b0: 4c0f bcbb bf69 913c d0e7 24bd 7a6d f3bc
000000c0: 329c d73c 0722 ebbc 647e debc 9890 d23b
000000d0: 59e3 9abc 4774 133b 9c20 113d b844 15bd
000000e0: a027 0b3c 53cd f53c 8189 bcbb 5e42 453d
000000f0: 7f5b 673c 8a8a 583c 4dfe 923c 2e1f 023b
00000100: c5b3 b4bc 4e7b 7c3c a0ca 05bd 3cf8 7fbc
00000110: 14a1 2fbd b049 073d 7781 3ebd b2dc c0bc
00000120: 74be 823c a130 b6bc 0197 c1bc 6735 f83c
00000130: 3561 0dbc 9ec8 f0ba 2d35 2c3d dd81 ce3b
00000140: d4e0 debc 7752 ba3b a1ea 58bc 34d8 c7bc
00000150: c9c0 263d 742a 053d 05bc 063d 0a8e 94bc
00000160: e767 27bd c652 b7bc a501 98bc ab1d 5d3d
00000170: 2e19 f8bc 3f0e 063d 1ac9 893c 5398 0bbc
00000180: 91fb 403c 4753 183d 2def 023d 855c 12bc
00000190: 8a82 aebb 357a 193d fb79 abba 0aba 16bb
000001a0: 9a90 86bc 6a7d 453d 76f8 6d3c 7b13 4c3d
000001b0: 681a 07bd 275d 6a3c 3910 0abd 464c f5bc
000001c0: cb83 013d c998 24bc 283c 81bc 33d0 e5bb
000001d0: 4d6b a5bb 342a 36b8 29c7 92bc 83be 883c
000001e0: e242 6e3c 0e75 0b3d 6b79 c0bc a6f2 4d3d
000001f0: c699 243d f52a 563c bddc 1a3c 4d70 683c
00000200: eff8 1cbd a3a8 553d 49ea 4d3c 272e 14bc
00000210: 6ff1 1d3c 8791 433d 9e50 12bd 54e5 0dbd
00000220: e26f 12bb ebaa 023c 8a63 863c aa9e b8bc
00000230: f0f5 9d3b dea6 b13c 7494 89bc d848 8ebc
00000240: dba6 4a3d 087d b53c b346 913c d50f 663d
00000250: 3685 373c fb71 563d aad3 793c 3e32 bf3c
00000260: 5d3c 4e3d 3ae9 98bc 8f60 fdbc df34 07bc
00000270: f078 d53c cd00 0f3d 373e c83a 94ee 17bd
00000280: 8e61 dd3c ac57 3fbd cdc9 8b3c fc5e 5ebc
00000290: dddb 21bc 5b89 cb3b b2d3 2abc 26d4 8e3b
000002a0: 0d62 5cbc 38a0 ebbc faa9 bdbc 3428 7dbc
000002b0: 0d93 583b 5cc7 76bc b6be 63bc dbb0 24bb
000002c0: d833 ba3c 553d fd3c 3006 b1bc 7489 2e3c
000002d0: a000 f9bc b960 a73c d0ea 1ebd 9916 15bc
000002e0: 577f 8f3c ce0f 153d 8ea9 d03c f3be 03bd
000002f0: bb59 44bd ebca 95bb cf98 efbc ef3d 06bd
00000300: a063 17bd 108b 4abd ce49 3bbb 1924 813c
00000310: 48e6 34bd cc4c 92bc 2bda a33c 2064 723c
00000320: f9a7 8dbb 876a 12bc d23d f0bb 6915 debc
00000330: 202a c7bc 58d7 f8b9 edb2 e2bc 8957 813b
00000340: 1f09 c83b 93e7 e8bc 244e 1bbd fe76 ba3b
00000350: 722d 0bbd 45a4 a13c cd5c cbbc c06e 4e3d
00000360: 5f6d 71bc 21ab 153c 4901 05ba 952c 6b3b
00000370: bbf8 d53b baac 0d3d 39bf adbc 5fec b0ba
00000380: df4f 97bc eab0 2abc 733f 623c 24e5 043d
00000390: 0291 73bb 8058 e93a 7c8e 05bd e4ba cc3b
000003a0: deb2 07bd 0f34 12bc 067c d0bc 2eef 3f3b
000003b0: 3b39 ddbc 2d94 253c ad49 9c3c 126c 573c
000003c0: f1d7 7ebc 542a cbbc 89ed 2c3d c593 1dbd
000003d0: 972e 5b3c 2100 80bc 5055 11bd b473 b7bc
000003e0: 8e59 f0bc e40f efbb 42b1 93bb 7705 5bbc
000003f0: 6280 973c 7034 d9bc fa0f 11bd 528d b73c
